presets/internal/raw_params.npy (npy, 232668 bytes, 1 tensors)

array f4 [385, 151]
0	0xc0556086	-3.3340163
1	0xc02e20cf	-2.7207525
2	0xc028d7f1	-2.63818
3	0xc03d51f7	-2.9581277
4	0xbfde0c9c	-1.7347598
5	0xc03d67bd	-2.9594567
6	0xc0a7ef7f	-5.2479854
7	0x4043ede9	3.061396
8	0x41046671	8.27501
9	0xbf2b10a4	-0.66822267
10	0x40d93173	6.7872863
11	0xc0696aca	-3.647143
12	0xc04ad1af	-3.169048
13	0xbffc9c3c	-1.9735179
14	0xc1c18a72	-24.1926
15	0xc24c179a	-51.02305
16	0x40d86c52	6.7632227
17	0x3ddd2904	0.10798839
18	0xc089491c	-4.2901745
19	0xc12cf5f4	-10.810047
20	0x404b5891	3.1772807
21	0xbffbd98a	-1.9675763
22	0x4095c259	4.679974
23	0x403fe2e0	2.9982224
24	0xbf663bbe	-0.8993491
25	0xbfbca37d	-1.4737393
26	0xc080a4a5	-4.020098
27	0xbf56d3f2	-0.8391715
28	0xbfedd775	-1.8581377
29	0x3f2e4be9	0.6808458
30	0x3f91581e	1.1355016
31	0xbd004296	-0.0313135
32	0x3d0bb240	0.03410554
33	0x3e27f6f5	0.164028
34	0x3ecda0df	0.40161797
35	0x3eeaf09c	0.45886695
36	0x3f2a208c	0.6645591
37	0x3e16d877	0.14731012
38	0x3df3240e	0.11872111
39	0xbc547fba	-0.0129699055
40	0x3cf0899d	0.029362494
41	0x39b65e5a	0.00034784043
42	0x3d317ca2	0.04333175
43	0xbbb8cb6f	-0.0056394855
44	0xbbee7614	-0.0072772596
45	0x3d38848f	0.045048293
46	0xbc259b9c	-0.010107901
47	0x3e8b796d	0.27241078
48	0xbe0cc41d	-0.13746686
49	0xbd1f489e	-0.038887613
50	0x3bf33e2a	0.007423182
51	0xbd444eb9	-0.04792664
52	0xbcdacca8	-0.026708916
53	0x3e476897	0.19473492
54	0x3e658faf	0.22418092
55	0x3fd25995	1.6433588
56	0x402716ef	2.6107748
57	0x4021aadb	2.5260532
58	0x4014c8e4	2.3247614
59	0x40192540	2.3928986
60	0x400d7d82	2.2107854
61	0x4017f8c3	2.3745582
62	0x400a27fa	2.15869
63	0x4008c715	2.137151
64	0x4001cee6	2.028253
65	0x400323fc	2.0490713
66	0x4006976a	2.1029916
67	0x402d4c63	2.7077873
68	0x4015075e	2.3285747
69	0x40044f23	2.0673301
70	0x3ff6aee2	1.927212
71	0x40026184	2.037202
72	0x40092d3d	2.1433861
73	0x3ffe18e8	1.9851351
74	0x3fef32b1	1.8687345
75	0x3fea510b	1.8305982
76	0x3fe93dbc	1.8221965
77	0x3fe9584a	1.8230069
78	0x3fe7ab3b	1.809913
79	0x3fee8344	1.8633809
80	0x3ff03d1e	1.8768651
81	0x3fd8df7b	1.6943201
82	0x3fe664b8	1.7999487
83	0x3fd8f4a9	1.6949664
84	0x3fd0a6dd	1.6300923
85	0x3fde860e	1.738466
86	0x3fd14625	1.6349531
87	0x3ff48874	1.9104142
88	0x3fdcfcfd	1.7264706
89	0x3fec22b2	1.8448088
90	0x3fc80023	1.5625042
91	0x3fac3863	1.3454708
92	0x3f956693	1.1671928
93	0x3fad39a8	1.353322
94	0xbfa16881	-1.2610017
95	0x3fea9cc8	1.8329096
96	0x3ffbc0f6	1.9668262
97	0x3fdccbf8	1.7249746
98	0xc055bf99	-3.3398192
99	0xc05129ba	-3.2681718
100	0x3f6ace66	0.9172119
101	0xbfda9563	-1.7076839
102	0x3f298310	0.6621561
103	0xbeeb0747	-0.4590399
104	0xbe4ccaf2	-0.19999292
105	0x3f51b56b	0.81917447
106	0x3f748111	0.9550944
107	0xbefee91d	-0.49787226
108	0xbe9091f1	-0.28236344
109	0xbe43b5d8	-0.19112337
110	0x3d168499	0.03674755
111	0xbeb34e4e	-0.3502068
112	0xbe994a2f	-0.2993941
113	0xbfc7c993	-1.560839
114	0xbd0853f5	-0.033283193
115	0x3ed76281	0.4206734
116	0xbebc6d72	-0.3680225
117	0x3cd33b9e	0.025785264
118	0xbd24ae19	-0.040205095
119	0xbf81eb23	-1.0149883
120	0x3d88ab79	0.06673331
121	0x3e0e2cc5	0.13884266
122	0x3e5cfabc	0.21580023
123	0x3d46de59	0.04855189
124	0xbf355f35	-0.708484
125	0x3da32dd0	0.079677224
126	0x3df2a3a8	0.11847621
127	0x3d6c88d5	0.05774768
128	0x3f25b148	0.64723635
129	0x3d29ad46	0.041425012
130	0xbe9c8700	-0.30571747
131	0xbe2a69f5	-0.16641982
132	0xbe1ceb48	-0.15324128
133	0x3f9384b5	1.1524874
134	0xbc9322d8	-0.01796095
135	0xbec50965	-0.3848373
136	0x3dc7fda2	0.097651735
137	0x3f225740	0.6341438
138	0x3d6770aa	0.05650393
139	0xbf11aaaf	-0.5690107
140	0x3fb4969d	1.4108464
141	0xbf77f833	-0.96863097
142	0xc01d89d6	-2.4615378
143	0x409d2f55	4.912028
144	0x40a35d1e	5.105117
145	0x3f5badb9	0.85811955
146	0x40abab90	5.3646927
147	0x3ef9a00d	0.48754922
148	0xc0e572c2	-7.1702585
149	0x3eab548b	0.3346294
150	0x3dbcd0fe	0.092195496
151	0xc03235ef	-2.7845418
152	0xbfeefdae	-1.8671167
153	0xbeef9d3c	-0.46799648
154	0x3e5bec79	0.21476926
155	0xc02265c8	-2.5374622
156	0xc0b021d2	-5.5041285
157	0x40078f90	2.1181374
158	0x40a6595f	5.1984096
159	0x3f1a194a	0.6019484
160	0x3e734525	0.23756845
161	0x40837545	4.108065
162	0xc00c429f	-2.1915662
163	0xc0b2fda4	-5.593462
164	0xc03e31b8	-2.9717846
165	0xc19b7300	-19.431152
166	0xc24bb0de	-50.92272
167	0x3f623b57	0.88371795
168	0x3d6c45e3	0.057683837
169	0xc0886b1c	-4.263075
170	0xc12d8847	-10.845771
171	0x4023609e	2.552772
172	0xc045ea0c	-3.09241
173	0x4097dd07	4.745731
174	0xc08e1043	-4.439485
175	0x3fb47632	1.409857
176	0xc05b1f68	-3.423792
177	0xc0dfdc10	-6.995613
178	0xc07af4d5	-3.9211934
179	0xc08f3652	-4.475381
180	0x3e9bbfc3	0.3041974
181	0x3eaf8c02	0.34286505
182	0x3f61943f	0.8811683
183	0x3f6197ef	0.8812246
184	0x3bb87ba1	0.005629972
185	0x3bb78deb	0.0056016347
186	0xb9e0eecd	-0.0004290253
187	0xba6b249b	-0.0008969993
188	0xb76af716	-1.4005016e-05
189	0x36ee9b56	7.111036e-06
190	0x3e84744b	0.25869974
191	0x3e844a2c	0.2583784
192	0xb9ac1e01	-0.0003282875
193	0xb9a2cc0b	-0.00031051072
194	0x3beb1647	0.0071742865
195	0x3d95fed8	0.07323998
196	0x3d7b610b	0.061371844
197	0xbf1dab1c	-0.6158922
198	0x3ca0abf9	0.019613253
199	0xbeb785e7	-0.35844347
200	0x3bf4f424	0.007475393
201	0x3d95ffc1	0.07324172
202	0x3d8077ba	0.06272836
203	0xbf1cd5b8	-0.6126361
204	0x3ca40c25	0.020025322
205	0x3efa3842	0.48871046
206	0x3fa33373	1.2750076
207	0x3fdbdd9c	1.7177005
208	0x3fe129c0	1.7590866
209	0x3fbf1dcd	1.493097
210	0x3fcecd34	1.6156373
211	0x3fc71448	1.5553064
212	0x3fc6f113	1.554232
213	0x3fc79461	1.5592157
214	0x3fae37c1	1.3610765
215	0x3f9ff0f5	1.2495409
216	0x3fb648ef	1.4241008
217	0x3fb33a0d	1.4002091
218	0x3fc5417c	1.5410609
219	0x3fb52250	1.4151096
220	0x3fb048d8	1.377223
221	0x3fa9a4f0	1.325346
222	0x3fa35778	1.2761068
223	0x3fa53df3	1.290953
224	0x3f87a08e	1.0595872
225	0x3fb5c601	1.4201051
226	0x3fc01e1c	1.5009189
227	0x3f8fc6a4	1.1232495
228	0x3f97c7b6	1.1857822
229	0x3f9546e7	1.1662263
230	0x3f9facfb	1.2474664
231	0x3fa7a7e2	1.3098109
232	0x3f9bcaaa	1.2171223
233	0x3f9c602c	1.2216849
234	0x3f9311bb	1.1489786
235	0x3f92da32	1.1472838
236	0x3f908aac	1.1292319
237	0x3f99377e	1.197006
238	0x3fba3d1b	1.4549898
239	0x3fc0bdcf	1.5057925
240	0x3fc5ac6c	1.5443244
241	0x3fc0811e	1.5039403
242	0x3f8890f4	1.0669236
243	0x3f675104	0.90357995
244	0x3f80fa56	1.0076396
245	0x3f390521	0.7227345
246	0x3f5a7038	0.8532748
247	0x3ee21dbc	0.4416331
248	0x3f9ed7c7	1.24096
249	0x3fab2bd2	1.3372748
250	0x3ee1eba4	0.44125092
251	0x3f34f85b	0.7069146
252	0xbe713e3f	-0.23558901
253	0xbece0064	-0.40234673
254	0xbd397b30	-0.045283496
255	0xbe36224a	-0.17786518
