presets/medleydb/raw_params.npy (npy, 42408 bytes, 1 tensors)

array f4 [70, 151]
00000000: 5abc a2bf 6a23 2ac0 9d1f 863e 20dc df40
00000010: 59f1 1dc0 7790 b0c0 507a 04c0 a43e c5bd
00000020: 51e9 7640 6227 9440 9a2a cf3e 48ec 0cc0
00000030: 52f0 4dc0 2e93 42c0 c80a cfc1 a486 4ac2
00000040: 2820 cabf 8626 16ba 5695 4ac0 41fe e4c0
00000050: 4faa 0640 7465 58c0 b815 8c40 4f5f c0c0
00000060: 2d5f c1bf b786 0540 a62d a0c0 219f b840
00000070: 42a4 a1bd 2aba 163f 2bad 2240 6f4d 393f
00000080: 4132 393f 27a6 733e 24fc 733e 6c79 9e3f
00000090: c346 9e3f 7674 303e 7832 303e ce17 57bb
000000a0: 5848 bcbb a389 4f3b 6367 2c3b 7484 493b
000000b0: c505 7e3d 789a 3e3b a2c5 85bc d466 9bbe
000000c0: 238d 06bd 687e a3bb 6869 43bc fdab 2a3c
000000d0: 29a2 173d beee 30be 5223 293f eff7 7440
000000e0: 13d1 4440 acbd 3940 e513 3040 a457 fa40
000000f0: b36d 1b40 7795 4c40 d278 3740 7ebf 2e40
00000100: 32ef 3240 75c0 3f40 bca7 1a40 7522 2140
00000110: 21c4 da3f 7b76 bb3f 36ea bb3f 8cea 753f
00000120: 35e9 a9bd f240 95be c446 2ec0 9df7 1e3f
00000130: dcde e63d d9b5 8ebe ed15 5cbf 2823 15c0
00000140: b212 dabf 70bb c6bf f7af 6fbf eab7 75bd
00000150: 8001 04bf 9fed 283f 85d4 473f f7e8 1640
00000160: 13c8 6140 7ad0 f040 4a15 0941 c876 0e41
00000170: 1926 0f41 bcfc 1141 edec 1541 107a 0f41
00000180: abfe 1141 2373 1541 290c 49c0 7772 08c0
00000190: 5b62 fe3e df9d 6dbe cde2 efbe 434f 413f
000001a0: 9644 b9bf 553c f7be fa0d cf3e 9b4d af3f
000001b0: 46bf bfbc f5ff 063d f8e3 963e f546 13be
000001c0: db52 23bf e3a8 a13e bb28 aa3b 5fc0 cabc
000001d0: aa9e bb3e 839d c7be 45ae 343e db21 4c3f
000001e0: 1f5a b1bc 93bc b2bc da63 49bf a51b 6abc
000001f0: bde8 f53e 28da a4be af48 1cbb 8774 3ebd
00000200: d06c 123f 02de 0d3f 05fb b2be a8ed 3c3d
00000210: 1ed3 a53e 786e 26c0 717c 9b3d a2fb 283e
00000220: 25cd 133f 0e97 213f ec77 87be b32d f93e
00000230: a85c 4fc0 2f06 eebf 76de 6b40 119e 8f40
00000240: 5abf b3bf 4895 b6bf 7dfc f83f e27e 95c0
00000250: bb57 1c41 482a 2c40 9368 003e 6c4f 7fc0
00000260: 63db 9ec0 a0e0 44c0 fc4f 8140 ee4d ba3e
00000270: be01 52c0 c3d5 3140 7be4 17c0 7e8e 6a40
00000280: 554d cac0 9512 e040 2967 28c0 db11 91c0
00000290: c505 88c0 35ff a5c1 47f9 4dc2 6fb8 8d40
000002a0: 560f 423e cedb 18c0 f030 31c1 b065 093f
000002b0: 5bb6 03c0 83a2 8440 f091 8640 bbd8 9ebf
000002c0: 7bee ac3f 8d8e 8ac0 b87d a440 581d 52be
000002d0: e723 c3bf b83e 15c0 2306 133f 1a14 f1be
000002e0: 6de7 8c3f ddc8 e8be 932c 3cbf d96c 5c3f
000002f0: 9145 9e3f 4840 76bf 292d 253f 681f 23bf
00000300: 0f85 273f 1b93 26bf a747 96bd eb4f 463d
00000310: 3cc3 803b eb88 64bd 3a11 b9be 510b 2fbf
00000320: 72d6 89bd d0f4 223d a0ce 953a 6bcd 7dbd
00000330: b08d b5be ce81 fe3e 22cb 0b41 ff89 5c40
00000340: 9d96 5140 32bd 4140 cb4c 4c40 c4e3 5440
00000350: 8667 2e40 3287 3640 0608 2b40 bfc4 1a40
00000360: c3b4 0b40 38f2 fe3f dc06 e93f 003a ac3f
00000370: fefe 8f3f 1474 7a3f 3bee 173f 5107 743d
00000380: b24c bdbd f1c8 82be 501d 73bf c25f 6ebf
00000390: a9f5 dfbf 1834 f0bf 3a54 bfbf 075c fcbf
000003a0: 2f00 eabf 349c 07c0 a932 adbf d4ad f3bf
000003b0: c4d0 8bbf c728 b9bf a7cf 52be 52b1 aebf
000003c0: 8837 5540 bae5 07c0 9a34 0540 5ccc 28bf
000003d0: 73da 81bf 74d3 ccbf 1131 153f 7f14 8d40
000003e0: d777 0041 5686 0e41 4819 1341 47a3 1741
000003f0: 80b8 0c41 4c0d 8940 ea5b 0d3f be86 67bc
-1.271373 -2.6584115 0.26195994 6.9956207 -2.4678557 -5.517635 -2.0699654 -0.096310884
3.8579905 4.6298075 0.4046219 -2.2019215 -3.217793 -3.0402331 -25.880264 -50.631485
-1.5791063 -0.00057277863 -3.1653647 -7.156037 2.1041448 -3.3811922 4.377651 -6.0116343
-1.510717 2.0863473 -5.0055723 5.769425 -0.07892658 0.58877814 2.5418193 0.7238378
0.72342306 0.23793851 0.23826653 1.2380805 1.2365345 0.17231926 0.17206752 -0.0032820585
-0.0057459287 0.0031667731 0.002630674 0.0030749114 0.06201722 0.002908377 -0.01632959 -0.3035189
-0.032849442 -0.004989434 -0.011926986 0.010416982 0.037019882 -0.17278573 0.6606952 3.8276327
3.0752609 2.9022017 2.7512143 7.8231983 2.4285705 3.1966226 2.8667493 2.7304378
2.7958493 2.9961216 2.4164877 2.517728 1.7091104 1.4645532 1.468085 0.96061015
-0.08296434 -0.29151112 -2.7230692 0.6209658 0.11272976 -0.27873114 -0.85970956 -2.3302708
-1.7036955 -1.5525951 -0.93627876 -0.059989847 -0.5156479 0.6598758 0.78058654 2.357969
3.5278366 7.525449 8.567698 8.903999 8.946801 9.124203 9.370343 8.9673
9.124675 9.34061 -3.1413672 -2.1319864 0.49684414 -0.23204754 -0.46852723 0.7551157
-1.4474056 -0.48288217 0.4044035 1.3695558 -0.023406636 0.032958943 0.294708 -0.14382537
-0.637983 0.31574163 0.0051928437 -0.024749933 0.3664449 -0.3898736 0.17644604 0.7973916
-0.021649418 -0.021818435 -0.78667986 -0.0142888175 0.48029128 -0.3219769 -0.0023847034 -0.046497848
0.57197285 0.5541688 -0.34957138 0.046125084 0.32387632 -2.6004925 0.07592095 0.1650224
0.577349 0.63121116 -0.2645868 0.48667678 -3.2400303 -1.8595637 3.685453 4.488045
-1.4042771 -1.4264307 1.9452053 -4.6717386 9.771419 2.6900806 0.12539892 -3.9892225
-4.9642806 -3.07621 4.0410137 0.3638758 -3.2813563 2.778672 -2.3733203 3.664947
-6.32194 7.0022683 -2.6312964 -4.5334296 -4.2507043 -20.749613 -51.493435 4.428764
0.18951163 -2.3884158 -11.074448 0.5367079 -2.058005 4.144838 4.2053146 -1.2409891
1.3510278 -4.329901 5.1403465 -0.20519006 -1.5245332 -2.331953 0.5743124 -0.4708565
1.1008126 -0.45465747 -0.73505515 0.8610359 1.236498 -0.96191835 0.64522034 -0.637198
0.65437406 -0.65068215 -0.07337885 0.04841606 0.0039295238 -0.055794638 -0.36145955 -0.6837664
-0.06730355 0.039784253 0.0011429377 -0.06196348 -0.3545966 0.49708408 8.737093 3.4459226
3.2748177 3.0271726 3.192187 3.3264017 2.7250686 2.8520017 2.6723647 2.4182584
2.1829078 1.9917669 1.8205218 1.34552 1.1249692 0.9783337 0.59347886 0.05957729
-0.09243144 -0.2554393 -0.949666 -0.93114865 -1.7496845 -1.8765898 -1.4947579 -1.9715585
-1.8281306 -2.118909 -1.3531085 -1.9037423 -1.0923085 -1.4465569 -0.20587026 -1.3647864
3.3315144 -2.1233964 2.0813355 -0.6593683 -1.014479 -1.600203 0.58277994 4.408752
8.029258 8.907797 9.193672 9.477363 8.795044 4.282873 0.55218375 -0.014131246
